_________________________________________________________________
Layer (type)                 Output Shape              Param #   
=================================================================
dense_1 (Dense)              (None, 50)                2150      
_________________________________________________________________
dense_2 (Dense)              (None, 50)                2550      
_________________________________________________________________
dense_3 (Dense)              (None, 12)                612       
=================================================================
Total params: 5,312
Trainable params: 5,312
Non-trainable params: 0
_________________________________________________________________
_________________________________________________________________
Layer (type)                 Output Shape              Param #   
=================================================================
dense_4 (Dense)              (None, 100)               5500      
_________________________________________________________________
dense_5 (Dense)              (None, 100)               10100     
_________________________________________________________________
dense_6 (Dense)              (None, 1)                 101       
=================================================================
Total params: 15,701
Trainable params: 15,701
Non-trainable params: 0
_________________________________________________________________
_________________________________________________________________
Layer (type)                 Output Shape              Param #   
=================================================================
dense_7 (Dense)              (None, 100)               5500      
_________________________________________________________________
dense_8 (Dense)              (None, 100)               10100     
_________________________________________________________________
dense_9 (Dense)              (None, 1)                 101       
=================================================================
Total params: 15,701
Trainable params: 15,701
Non-trainable params: 0
_________________________________________________________________
1
episode: 0   score: 38.43072269764451 life:  220 epsilon:  0.01
episode: 1   score: 40.875503506328414 life:  224 epsilon:  0.01
episode: 2   score: 33.2176914449916 life:  212 epsilon:  0.01
…
