_________________________________________________________________
Layer (type)                 Output Shape              Param #   
=================================================================
dense_1 (Dense)              (None, 50)                2150      
_________________________________________________________________
dense_2 (Dense)              (None, 50)                2550      
_________________________________________________________________
dense_3 (Dense)              (None, 12)                612       
=================================================================
Total params: 5,312
Trainable params: 5,312
Non-trainable params: 0
_________________________________________________________________
_________________________________________________________________
Layer (type)                 Output Shape              Param #   
=================================================================
dense_4 (Dense)              (None, 100)               5500      
_________________________________________________________________
dense_5 (Dense)              (None, 100)               10100     
_________________________________________________________________
dense_6 (Dense)              (None, 1)                 101       
=================================================================
Total params: 15,701
Trainable params: 15,701
Non-trainable params: 0
_________________________________________________________________
_________________________________________________________________
Layer (type)                 Output Shape              Param #   
=================================================================
dense_7 (Dense)              (None, 100)               5500      
_________________________________________________________________
dense_8 (Dense)              (None, 100)               10100     
_________________________________________________________________
dense_9 (Dense)              (None, 1)                 101       
=================================================================
Total params: 15,701
Trainable params: 15,701
Non-trainable params: 0
_________________________________________________________________
t =  0
t =  1
t =  2
t =  3
t =  4
t =  5
t =  6
t =  7
t =  8
t =  9
t =  10
t =  11
t =  12
t =  13
t =  14
t =  15
t =  16
t =  17
t =  18
t =  19
t =  20
t =  21
t =  22
t =  23
t =  24
t =  25
…
